…
yDMhL0OeM=s64","userId":"14035404591301845819"}},"outputId":"d9956563-d549-46fc-c5c5-04192c500846"},"source":["autoencoder.summary()"],"execution_count":47,"outputs":[{"output_type":"stream","text":["Model: \"model\"\n","_________________________________________________________________\n","Layer (type)                 Output Shape              Param #   \n","=================================================================\n","input_1 (InputLayer)         [(None, 17)]              0         \n","_________________________________________________________________\n","dense (Dense)                (None, 7)                 126       \n","_________________________________________________________________\n","dense_1 (Dense)              (None, 500)               4000      \n","_________________________________________________________________\n","dense_2 (Dense)              (None, 500)               250500    \n","_________________________________________________________________\n","dense_3 (Dense)              (None, 2000)              1002000   \n","_________________________________________________________________\n","dense_4 (Dense)              (None, 10)                20010     \n","_________________________________________________________________\n","dense_5 (Dense)              (None, 2000)              22000     \n","_________________________________________________________________\n","dense_6 (Dense)              (None, 500)               1000500   \n","_________________________________________________________________\n","dense_7 (Dense)              (None, 17)                8517      \n","=================================================================\n","Total params: 2,307,653\n","Trainable params: 2,307,653\n","Non-trainable params: 0\n","_________________________________________________________________\n"],"name":"stdout"}]},{"cell_type":"code","metadata":{"id":"zZ86PPLm1sTn","executionInfo":{"status":"ok","timestamp":1625386191602,"user_tz":-330,"elapsed":748,"use
…
